…
wandb: Currently logged in as: cvasq24 (cvasq24-university-of-british-columbia) to https://api.wandb.ai. Use `wandb login --relogin` to force relogin
wandb: Tracking run with wandb version 0.21.0
wandb: Run data is saved locally in /ubc/cs/research/beaver/projects/carlos/hyperbolic/code/wandb_tmp/wandb/run-20251011_104957-e5orckki
wandb: Run `wandb offline` to turn off syncing.
wandb: Syncing run pancreas_pgmadd_uq_2latents_CUcc_z1_nograd
wandb: ⭐️ View project at https://wandb.ai/cvasq24-university-of-british-columbia/hyperbolic
wandb: 🚀 View run at https://wandb.ai/cvasq24-university-of-british-columbia/hyperbolic/runs/e5orckki
2025-10-11 10:49:58,605 - Using device cuda
PGMadd(
  (encoder): Encoder(
    (encoder): Sequential(
      (0): Linear(in_features=2060, out_features=512, bias=True)
      (1): BatchNorm1d(512, eps=1e-05, momentum=0.1, affine=True, track_running_stats=True)
      (2): LeakyReLU(negative_slope=0.01)
      (3): Linear(in_features=512, out_features=256, bias=True)
      (4): BatchNorm1d(256, eps=1e-05, momentum=0.1, affine=True, track_running_stats=True)
      (5): LeakyReLU(negative_slope=0.01)
      (6): Linear(in_features=256, out_features=128, bias=True)
      (7): BatchNorm1d(128, eps=1e-05, momentum=0.1, affine=True, track_running_stats=True)
      (8): LeakyReLU(negative_slope=0.01)
    )
    (variational): Linear(in_features=128, out_features=6, bias=True)
  )
  (decoder): AdditiveDecoder(
    (decoder): ModuleDict(
      (0): Sequential(
        (0): Linear(in_features=3, out_features=128, bias=True)
        (1): BatchNorm1d(128, eps=1e-05, momentum=0.1, affine=True, track_running_stats=True)
        (2): LeakyReLU(negative_slope=0.01)
        (3): Linear(in_features=128, out_features=256, bias=True)
        (4): BatchNorm1d(256, eps=1e-05, momentum=0.1, affine=True, track_running_stats=True)
        (5): LeakyReLU(negative_slope=0.01)
        (6): Linear(in_features=256, out_features=2059, bias=True)
      )
      (1): Sequential(
        (0): Linear(in_features=5, out_features=128, bias=True)
        (1): BatchNorm1d(128, eps=1e-05, momentum=0.1, affine=True, track_running_stats=True)
        (2): LeakyReLU(negative_slope=0.01)
        (3): Linear(in_features=128, out_features=256, bias=True)
        (4): BatchNorm1d(256, eps=1e-05, momentum=0.1, affine=True, track_running_stats=True)
        (5): LeakyReLU(negative_slope=0.01)
        (6): Linear(in_features=256, out_features=2059, bias=True)
      )
    )
  )
)
2025-10-11 10:49:59,787 - Epoch 1/2500, batch 0/28: ELBO=2559.60, KL=13.40, Log-likelihood=-2546.19
2025-10-11 10:50:00,342 - Epoch 1/2500, batch 10/28: ELBO=2422.68, KL=5.25, Log-likelihood=-2417.44
2025-10-11 10:50:00,454 - Epoch 1/2500, batch 20/28: ELBO=2332.64, KL=6.02, Log-likelihood=-2326.62
2025-10-11 10:50:00,567 - Epoch 2/2500, batch 0/28: ELBO=2340.96, KL=4.28, Log-likelihood=-2336.68
…
