…
wandb: Currently logged in as: cvasq24 (cvasq24-university-of-british-columbia) to https://api.wandb.ai. Use `wandb login --relogin` to force relogin
wandb: Tracking run with wandb version 0.21.0
wandb: Run data is saved locally in /ubc/cs/research/beaver/projects/carlos/hyperbolic/code/wandb_tmp/wandb/run-20251012_203941-3xfelqjx
wandb: Run `wandb offline` to turn off syncing.
wandb: Syncing run pancreas_seed_0
wandb: ⭐️ View project at https://wandb.ai/cvasq24-university-of-british-columbia/hyperbolic
wandb: 🚀 View run at https://wandb.ai/cvasq24-university-of-british-columbia/hyperbolic/runs/3xfelqjx
2025-10-12 20:39:42,642 - Using device cuda
PGMadd(
  (encoder): Encoder(
    (encoder): Sequential(
      (0): Linear(in_features=2060, out_features=512, bias=True)
      (1): BatchNorm1d(512, eps=1e-05, momentum=0.1, affine=True, track_running_stats=True)
      (2): LeakyReLU(negative_slope=0.01)
      (3): Linear(in_features=512, out_features=256, bias=True)
      (4): BatchNorm1d(256, eps=1e-05, momentum=0.1, affine=True, track_running_stats=True)
      (5): LeakyReLU(negative_slope=0.01)
      (6): Linear(in_features=256, out_features=128, bias=True)
      (7): BatchNorm1d(128, eps=1e-05, momentum=0.1, affine=True, track_running_stats=True)
      (8): LeakyReLU(negative_slope=0.01)
    )
    (variational): Linear(in_features=128, out_features=6, bias=True)
  )
  (decoder): AdditiveDecoder(
    (decoder): ModuleDict(
      (0): Sequential(
        (0): Linear(in_features=3, out_features=128, bias=True)
        (1): BatchNorm1d(128, eps=1e-05, momentum=0.1, affine=True, track_running_stats=True)
        (2): LeakyReLU(negative_slope=0.01)
        (3): Linear(in_features=128, out_features=256, bias=True)
        (4): BatchNorm1d(256, eps=1e-05, momentum=0.1, affine=True, track_running_stats=True)
        (5): LeakyReLU(negative_slope=0.01)
        (6): Linear(in_features=256, out_features=2059, bias=True)
      )
      (1): Sequential(
        (0): Linear(in_features=3, out_features=128, bias=True)
        (1): BatchNorm1d(128, eps=1e-05, momentum=0.1, affine=True, track_running_stats=True)
        (2): LeakyReLU(negative_slope=0.01)
        (3): Linear(in_features=128, out_features=256, bias=True)
        (4): BatchNorm1d(256, eps=1e-05, momentum=0.1, affine=True, track_running_stats=True)
        (5): LeakyReLU(negative_slope=0.01)
        (6): Linear(in_features=256, out_features=2059, bias=True)
      )
    )
  )
)
2025-10-12 20:39:43,930 - Epoch 1/2500, batch 0/28: ELBO=2675.79, KL=15.56, Log-likelihood=-2660.23
2025-10-12 20:39:44,497 - Epoch 1/2500, batch 10/28: ELBO=2421.02, KL=2.58, Log-likelihood=-2418.44
2025-10-12 20:39:44,605 - Epoch 1/2500, batch 20/28: ELBO=2433.72, KL=4.74, Log-likelihood=-2428.98
2025-10-12 20:39:44,709 - Epoch 2/2500, batch 0/28: ELBO=2378.41, KL=3.20, Log-likelihood=-2375.22
…
